lenet5_mnist.pth (torch, 250750 bytes, 10 tensors)

features.0.weight f4 [6, 1, 5, 5]
0	0x3dcfeeab	0.10152944
1	0xbdf58731	-0.11988676
2	0xbdf19b45	-0.117971934
3	0xbcef6f59	-0.0292279
4	0xbe8aa396	-0.2707793
5	0x3e1e595d	0.15463777
6	0x3d3893cc	0.045062825
7	0x3e4594ee	0.19295093
8	0x3dda4c19	0.10659046
9	0x3d1aa154	0.03775151
10	0x3dc25e53	0.09490647
11	0x3e069eec	0.13146561
12	0x3e69513f	0.22784899
13	0x3d65574c	0.055991456
14	0x3dc76e5a	0.09737845
15	0xbd69eecc	-0.0571125
16	0x3d599f8d	0.053130675
17	0x3d54ebe1	0.051982764
18	0x3e72b0f1	0.2370031
19	0x3e3f3a61	0.18674614
20	0xbe4abf71	-0.19799592
21	0xbe5f2aa5	-0.21793611
22	0xbe227433	-0.15864639
23	0xbe25260a	-0.16127792
24	0xbc3cd77b	-0.011525984
25	0xbbe71e1f	-0.0070531513
26	0x3deedd8b	0.1166335
27	0x3dc487f2	0.09596242
28	0xbe84e003	-0.25952157
29	0x3d706db3	0.058698367
30	0x3e05f6d4	0.13082439
31	0x3ea2f9d7	0.31831238
32	0x3e77292d	0.24136801
33	0xbe39f832	-0.18161085
34	0xbe6b8bd2	-0.23002556
35	0x3d0b55aa	0.034017242
36	0x3eabcd0e	0.33554882
37	0x3dcf075f	0.10108828
38	0x3e189fdd	0.14904733
39	0xbdab878b	-0.08375462
40	0x3e9a9730	0.30193472
41	0xbc85d60d	-0.016337419
42	0x3e4850e3	0.19562106
43	0x3d1d10e8	0.0383462
44	0xbdc17988	-0.09447008
45	0x3d9b954a	0.07596834
46	0xbe3c562c	-0.18392247
47	0xbcfa7d7b	-0.030577412
48	0xbde95ae4	-0.11394289
49	0xbd6ea735	-0.05826493
50	0xbe866090	-0.26245546
51	0xbe3608b3	-0.17776756
52	0x3cf9bec4	0.030486472
53	0xbdd2f4f4	-0.10300627
54	0x3e70a4cb	0.23500364
55	0x3e2525bc	0.16127676
56	0x3d4089a1	0.047006253
57	0xbd22bf20	-0.039733052
58	0x3e63aeb0	0.22234607
59	0x3e301a7e	0.17197606
60	0xbcd70170	-0.026245803
61	0x3e86b796	0.2631194
62	0x3e745457	0.23860298
63	0x3e87f4b7	0.2655389
64	0xbd84aa84	-0.06477836
65	0x3dcdae19	0.10042972
66	0x3da94e18	0.08266848
67	0x3cf1e9fd	0.02953052
68	0xbe422553	-0.1895955
69	0xbe4e1868	-0.20126498
70	0x3e0c3f62	0.13696054
71	0xbdd2cd57	-0.10293072
72	0xbd16f8a7	-0.036858227
73	0xbe0c8731	-0.13723446
74	0xbd5dca24	-0.054147854
75	0x3e01b574	0.12666875
76	0x3dfd825e	0.12378381
77	0x3e18ec71	0.14933945
78	0xbdf3b162	-0.118990675
79	0x3e2c2314	0.16810256
80	0xbe4e88ea	-0.20169416
81	0xbe86b91a	-0.26313096
82	0xbd3553a5	-0.044269223
83	0xbccbebd2	-0.024892721
84	0x3e1f4737	0.1555451
85	0xbe846b1c	-0.25862968
86	0xbeb4a517	-0.35282204
87	0x3d7c5022	0.061599858
88	0xbcc1e390	-0.02366808
89	0x3e06394d	0.13107796
90	0xbd0c07f9	-0.03418729
91	0xbe7f64af	-0.24940751
92	0x3c41a07d	0.011818049
93	0x3d853560	0.06504321
94	0xbe01a3e5	-0.12660177
95	0xbdb8ee54	-0.090298325
96	0x3dbccc4c	0.09218654
97	0x3d0c100d	0.034194995
98	0xbdc89a95	-0.09795109
99	0xbdca799a	-0.09886475
100	0x3e23a088	0.15979207
101	0xbd2e0b32	-0.042491145
102	0x3dfb4112	0.122682706
103	0x3d9e4ac2	0.07729103
104	0xbe55719b	-0.20844118
105	0xbe233386	-0.15937623
106	0x3e78e7b6	0.2430714
107	0x3da14b13	0.078756474
108	0x3e274744	0.1633578
109	0xbac6e941	-0.0015175716
110	0x3db56afb	0.088582955
111	0x3e48010b	0.19531648
112	0x3e7108ae	0.23538467
113	0xbdff879e	-0.12477039
114	0xbd120b8e	-0.03565555
115	0x3e4964f6	0.1966742
116	0x3e48f5fa	0.19625083
117	0x3e1e16eb	0.1543843
118	0xbe27132f	-0.16315912
119	0xbe64593b	-0.22299664
120	0xbdc24992	-0.09486689
121	0x3c308635	0.010774185
122	0x3e1dfb87	0.15427981
123	0xbe446528	-0.19179213
124	0x3c92d592	0.017924104
125	0xbe7b9224	-0.24567467
126	0xbe8e59d2	-0.27802902
127	0xbd71e738	-0.059058398
128	0x3e123eec	0.14281815
129	0x3e5be5f4	0.21474439
130	0xbe833021	-0.25622657
131	0x3c638a88	0.013888009
132	0x3e66d1b2	0.2254093
133	0x3e58d912	0.21176556
134	0x3e382088	0.1798116
135	0x3dafd44f	0.085854165
136	0x3e0ef786	0.1396161
137	0x3dc04dec	0.093898624
138	0xbdb79b24	-0.089651376
139	0xbdee7367	-0.11643105
140	0xbdc000d8	-0.09375161
141	0xbc08aa47	-0.0083413785
142	0xbded80dc	-0.115968436
143	0x3da71e15	0.081600346
144	0x3dca12b7	0.09866851
145	0xbcb7b6cd	-0.022426033
146	0x3da5cf6f	0.080962054
147	0x3d1406a2	0.036139138
148	0x3dbb2241	0.09137393
149	0x3dfd1ccc	0.12359008

features.0.bias f4 [6]
0	0xbe735a11	-0.23764826
1	0x3e776b58	0.24162042
2	0xbddaa268	-0.10675508
3	0x3dc48b96	0.095969364
4	0xbe3e21d4	-0.18567592
5	0xbe711dc5	-0.23546512

features.3.weight f4 [16, 6, 5, 5]
0	0xbdc0a572	-0.09406556
1	0xbe051e55	-0.12999852
2	0xbd8bd7f2	-0.06828298
3	0xbdf31c31	-0.118706115
4	0xbda310fd	-0.07962225
5	0xbd185b90	-0.037196696
6	0xbdf70dae	-0.12063156
7	0xbdbf08dd	-0.093278624
8	0xbe051551	-0.12996413
9	0xbd493eb5	-0.049132068
10	0xbd255c95	-0.040371496
11	0xbdf7dc24	-0.12102535
12	0xbe004deb	-0.12529723
13	0xbd8ec74a	-0.06971605
14	0xbd8fefa3	-0.07028129
15	0xbbbc87e6	-0.005753505
16	0xbc2e7e6a	-0.010650257
17	0x3cc686e6	0.024234246
18	0x3dca6b66	0.09883766
19	0x3d4cd618	0.050008863
20	0x3cafff90	0.021484166
21	0x3c13d282	0.009022357
22	0xbd2c1a3d	-0.04201721
23	0x3d3fff3a	0.046874262
24	0xbd652c91	-0.055950705
25	0xbcda1773	-0.02662251
26	0xbe20fcf3	-0.15721492
27	0xbd2156f7	-0.039389577
28	0xbd88a81e	-0.06672691
29	0x3dd3868e	0.10328399
30	0xbe078852	-0.13235596
31	0xbe44b95d	-0.19211335
32	0xbd67673b	-0.056494933
33	0x3c36613c	0.011131581
34	0x3d3951c1	0.045243982
35	0xbdb30c3c	-0.08742568
36	0xbdc9df86	-0.09857087
37	0x3d27cf32	0.04096908
38	0x3dffd930	0.12492597
39	0xbdeea489	-0.11652476
40	0xbd5c5641	-0.053793196
41	0x3d2e86fe	0.042609207
42	0x3de82260	0.113346815
43	0xbd9aa221	-0.07550455
44	0xbdcd915e	-0.10037492
45	0xbe09b08c	-0.13446254
46	0x3c6c8690	0.014436379
47	0xbd8b6d2d	-0.06807933
48	0xbd01613f	-0.03158688
49	0xbdd88027	-0.10571318
50	0xbd17b3d2	-0.037036724
51	0xbc7998ea	-0.015234211
52	0x3d537d6a	0.051633276
53	0x3de651f5	0.11246101
54	0x3e412c5e	0.18864581
55	0xbd984be4	-0.0743635
56	0xbd3158e3	-0.04329766
57	0x3e6075a7	0.21919881
58	0x3ea655ab	0.32487234
59	0x3e05a85a	0.13052502
60	0x3d29ad63	0.04142512
61	0x3d6b3a2e	0.05742853
62	0x3dd894c9	0.105752535
63	0x3d88976b	0.06669506
64	0xbda5df98	-0.08099288
65	0x3d888e2b	0.066677414
66	0xbc18e9ea	-0.009333113
67	0xbdc9f807	-0.098617606
68	0xbd47b45a	-0.04875598
69	0xbda3260d	-0.07966242
70	0xbda9b6d5	-0.082868256
71	0xbd4ba15c	-0.04971443
72	0xbd967e0e	-0.07348262
73	0xbc2aa8e8	-0.010416247
74	0xbd95a9c3	-0.0730777
75	0xbdd41ac9	-0.10356671
76	0x3d925c13	0.07146468
77	0xbd29fa94	-0.041498736
78	0xbdc52ee8	-0.09628087
79	0xbcb1004e	-0.02160659
80	0xbdcb132c	-0.09915766
81	0x3d0d3d97	0.034482565
82	0xbcfe48ac	-0.031040512
83	0xbdcd075b	-0.100111686
84	0xbdc506be	-0.096204266
85	0xbcf20881	-0.02954507
86	0xbbba251e	-0.0056806942
87	0xbd9462f2	-0.07245435
88	0xbd46948b	-0.048481505
89	0xbb49bda8	-0.003078321
90	0xbd60e71c	-0.054907903
91	0xbd8b64b3	-0.06806316
92	0xbd2b679d	-0.04184686
93	0x3c5ca8a9	0.013467946
94	0x3d7bb3d2	0.061450787
95	0xbcda8b61	-0.02667779
96	0xbce487cd	-0.027896786
97	0x3c16f7ad	0.009214324
98	0xbd25d128	-0.04048267
99	0xbd8f07b2	-0.0698389
100	0x3d29395d	0.04131447
101	0x3d00f1f5	0.03148075
102	0x3da3450e	0.079721555
103	0x3d16aec8	0.03678778
104	0x3e24caf5	0.16093047
105	0x3d513576	0.051076375
106	0xbb4153b2	-0.002949935
107	0x3e42cced	0.19023485
108	0x3e21571b	0.15755884
109	0xbc5a4bc7	-0.013323731
110	0x3cdd3170	0.027001113
111	0x3d1f2070	0.038849294
112	0x3e2429b5	0.16031535
113	0xba5b4874	-0.00083649834
114	0xbcd62ac0	-0.026143432
115	0xbc4cfa19	-0.0125108
116	0x3d915851	0.07096923
117	0x3dc20c19	0.09474964
118	0xbdc62e11	-0.09676755
119	0xbdc2bef3	-0.09509077
120	0xbdbed1b2	-0.0931734
121	0xbd190c2c	-0.037365124
122	0xbdcb9158	-0.099398315
123	0xbd46a6ab	-0.04849879
124	0xbd8d2d3b	-0.06893393
125	0x3c8ef78e	0.017452028
126	0x3e148bd6	0.14506468
127	0x3da8cc35	0.082420744
128	0x3b98f816	0.004668246
129	0x3d5166be	0.051123373
130	0xbdc851ab	-0.09781202
131	0x3e164f93	0.14678793
132	0x3db289b2	0.087176695
133	0x3de61c90	0.112359166
134	0x3dd1fd62	0.10253407
135	0xbd0ab43f	-0.033863302
136	0x3df05ec4	0.11736825
137	0x3e07c74e	0.13259622
138	0x3d1d86bb	0.038458567
139	0xbd7b787e	-0.061394207
140	0x3b245c13	0.0025079295
141	0x3d9d301f	0.07675194
142	0xbc07e3a8	-0.008294024
143	0xbd909438	-0.070595205
144	0xbdce6ac4	-0.10078958
145	0x39d143e1	0.0003991416
146	0x3cef88fc	0.029240124
147	0xbd4c89b4	-0.04993601
148	0xbd95d3bc	-0.07315776
149	0xbde6cf9d	-0.11270068
150	0xbda008cf	-0.0781418
151	0x3e01bc0d	0.12669392
152	0x3d6987e1	0.05701435
153	0x3d3ea8bb	0.046547633
154	0xbd323361	-0.04350603
155	0xbda92648	-0.08259255
156	0xbd734afd	-0.059397686
157	0x3cbd08ea	0.02307554
158	0x3e0166a8	0.12636817
159	0xbd8551e9	-0.06509764
160	0xbd9ef839	-0.077621885
161	0xbcc52a84	-0.024068125
162	0x3ccbc8dc	0.02487605
163	0x3d66cf17	0.05634984
164	0x3a47dd80	0.00076242536
165	0xbce412b1	-0.027840944
166	0xbd8df550	-0.06931555
167	0xbdd14206	-0.10217671
168	0xbd86ca85	-0.06581596
169	0xbc63b11e	-0.0138972085
170	0xbd6ab690	-0.05730301
171	0x3cc22e13	0.02370361
172	0xbd785e75	-0.060636956
173	0xbdaa527d	-0.08316515
174	0xbbe05d02	-0.006847025
175	0x3c7bfaf9	0.015379661
176	0x3d3ca891	0.046059195
177	0x3d1c4f9b	0.038161855
178	0x3d09d4c7	0.033650186
179	0xbd754ad7	-0.059885826
180	0xbe15051c	-0.1455273
181	0xbdb830db	-0.089936934
182	0x3e125b49	0.14292635
183	0x3dc6a909	0.0970021
184	0xbd2f32ae	-0.04277294
185	0xbddfd848	-0.10929924
186	0xbd92840c	-0.07154092
187	0x3e167500	0.1469307
188	0x3cb93908	0.022610202
189	0xbccff4a6	-0.025385212
190	0xbd8d7c9a	-0.069085315
191	0x3b55bc2d	0.0032613382
192	0xbdd64de8	-0.10464078
193	0xbdac2011	-0.08404554
194	0x3d780277	0.060549226
195	0x3b8f93b8	0.004381623
196	0xbceeae94	-0.02913598
197	0xbd9667a2	-0.07343985
198	0x3df23667	0.11826783
199	0x3d6d5281	0.05794001
200	0x3db66d5d	0.08907578
201	0xbac9bbae	-0.0015391016
202	0x3c7fedaf	0.015620633
203	0xbd3c4879	-0.045967553
204	0xbd4ca906	-0.04996588
205	0xbdee363d	-0.11631439
206	0x3d9620dd	0.07330487
207	0x3c35e52e	0.011102004
208	0x3c45114b	0.012028049
209	0xbd618091	-0.05505425
210	0xbd91a5ea	-0.07111724
211	0x3d9db514	0.077005535
212	0x3d988fda	0.074493125
213	0xbdf7cbe9	-0.1209944
214	0xbddf4a67	-0.10902863
215	0x3df2c89e	0.11854671
216	0x3d724d9a	0.059156038
217	0xbdc68c8c	-0.09694776
218	0x3decee54	0.11568895
219	0x3e013cdb	0.12620871
220	0xbd447459	-0.04796252
221	0x3d0c0602	0.034185417
222	0x3e0b5797	0.13607632
223	0x3e00c24d	0.1257412
224	0x3cc89860	0.02448672
225	0xbdaeb4c6	-0.085305735
226	0x3d45df17	0.04830846
227	0xbe165091	-0.14679171
228	0xbdee23b1	-0.11627901
229	0x3dad2124	0.08453587
230	0x3ce3da70	0.02781412
231	0x3d381356	0.044940315
232	0xbda96759	-0.08271665
233	0xbe0dcc1c	-0.13847393
234	0xbcea1379	-0.028573738
235	0x3d9ac267	0.075566106
236	0x3ae9c4da	0.0017835156
237	0xbdeabc01	-0.1146164
238	0x3d41fa84	0.04735805
239	0xbc099c78	-0.008399121
240	0x3d331557	0.043721523
241	0x3cefd31a	0.029275466
242	0x3d2c667f	0.042089935
243	0x3dbfb4e7	0.09360676
244	0xbd36324b	-0.044481557
245	0x3d74e1ab	0.059785526
246	0x3cdedb8a	0.027204294
247	0xbd3b761f	-0.045766946
248	0xbd483159	-0.048875187
249	0xbdd3aac0	-0.10335302
250	0xbd2e45cd	-0.042547036
251	0xbcc8968b	-0.024485847
252	0x3e2274e4	0.15864903
253	0x3cbe543c	0.023233525
254	0xbd1cf599	-0.038320158
255	0xbc71a486	-0.014748698

features.3.bias f4 [16]
0	0xbe1df9d9	-0.1542734
1	0xbe002564	-0.12514263
2	0xbd3d7a3e	-0.046259157
3	0xbd0ff2a3	-0.035143506
4	0xbda3565c	-0.07975456
5	0xbe07df05	-0.13268669
6	0xbd9fcc43	-0.07802632
7	0xbdeeb6e6	-0.11655979
8	0xbe1361f5	-0.14392836
9	0xbe00c6fc	-0.12575907
10	0xbdcd8411	-0.10034955
11	0xbde0094d	-0.10939274
12	0xbda8e3c1	-0.082465656
13	0xbe0d5837	-0.13803183
14	0xbd6ea6a8	-0.058264405
15	0x3c9b7f6f	0.018981664

classifier.0.weight f4 [120, 400]
0	0xbd0bd0c2	-0.034134634
1	0x3db94fc3	0.090484165
2	0x3df40477	0.11914914
3	0x3c2d1e9c	0.01056638
4	0x3cbce215	0.023057023
5	0x3d4585e5	0.048223395
6	0xbd6f8229	-0.05847374
7	0x3d4b8b00	0.049693108
8	0x3c922472	0.017839644
9	0xbc408937	-0.011751465
10	0xbc92c004	-0.017913826
11	0xbd746b3b	-0.059672575
12	0x3d9dfbbc	0.0771403
13	0x3b795359	0.0038044064
14	0x3d743a40	0.059625864
15	0xbcf0564e	-0.029338028
16	0xbcca9de9	-0.0247335
17	0x3d78a4c3	0.060704004
18	0xbd672a62	-0.056436904
19	0x3c36d8b8	0.011160068
20	0x3d1c7046	0.03819301
21	0x3c632ae1	0.013865204
22	0x3b992edb	0.004674775
23	0x3d37124f	0.044695195
24	0x3c517914	0.012785215
25	0x3be9cd50	0.007135071
26	0xbb282cc4	-0.0025661448
27	0x3d48ec38	0.0490534
28	0x3ddab617	0.10679262
29	0x3d590d57	0.052991237
30	0x3cc293c1	0.023752095
31	0x3c22ffdc	0.009948697
32	0x3d7ac2f7	0.06122109
33	0x3d591920	0.053002477
34	0x3dcc7bcc	0.0998455
35	0x3d2bfa56	0.041986786
36	0xba81d46c	-0.0009905226
37	0x3d356320	0.044283986
38	0xbc7b9f31	-0.015357778
39	0x3d01b75d	0.03166901
40	0x3d23b976	0.03997179
41	0x3d8e2fe3	0.069427274
42	0xbd0d4b90	-0.03449589
43	0x3ccbf3e6	0.024896573
44	0x3dcdee3d	0.10055206
45	0x3be110f6	0.006868477
46	0x3d47df8a	0.048797168
47	0x3d8c7398	0.06857985
48	0xbc764400	-0.015030861
49	0x3d2e4578	0.04254672
50	0xbbcef9af	-0.0063163857
51	0xbb96d982	-0.0046035657
52	0x3cad7f89	0.021178978
53	0x3ccf77d1	0.025325688
54	0xbc835d04	-0.016035564
55	0xbd251770	-0.040305555
56	0xbc786f1d	-0.01516321
57	0xbd423284	-0.047411457
58	0xbcac1895	-0.021007815
59	0x3c441b64	0.011969421
60	0xbbe63d94	-0.0070263837
61	0x3b7671ee	0.0037604528
62	0x3cef9f8f	0.029250888
63	0xbde36aff	-0.11104392
64	0xbd782f5d	-0.060592044
65	0x3c903693	0.017604148
66	0x3b6382ee	0.0034715491
67	0x3c88a8fd	0.016682142
68	0xbd3c8839	-0.04602835
69	0x3cc8487f	0.024448631
70	0x3a4643a3	0.0007563179
71	0xbd7431cd	-0.059617806
72	0x3bf5a47b	0.0074964142
73	0xbdc41f64	-0.095763
74	0x3dac632f	0.08417355
75	0x3b5574db	0.0032570872
76	0xbb25fecf	-0.002532888
77	0x3caa5548	0.020792618
78	0x3d92fb34	0.071768194
79	0x3b94cbbb	0.004540888
80	0x3d16ece6	0.036847018
81	0x3d59cb65	0.053172488
82	0x3d97ac7c	0.07405946
83	0x3de298d4	0.11064306
84	0x3c919d79	0.017775284
85	0x3cba40fc	0.022736065
86	0x3e4d5601	0.20052339
87	0x3e1f6868	0.15567172
88	0x3e40e617	0.18837772
89	0x3d91e96e	0.07124601
90	0x3d864801	0.065567024
91	0x3e03a133	0.12854461
92	0x3dc358d0	0.09538424
93	0x3c24bd90	0.010054961
94	0xbc193ce8	-0.0093529
95	0x3daea882	0.08528234
96	0x3dfaae60	0.12240291
97	0x3ceb898f	0.028752116
98	0x3cc3b1b1	0.02388844
99	0xbb59356a	-0.003314341
100	0xbd452ee8	-0.048140436
101	0xbd704f1b	-0.05866919
102	0x3d1be3b2	0.038058944
103	0xbb405eca	-0.0029353374
104	0x3dfb6877	0.122757845
105	0xbd3c886c	-0.04602854
106	0xbd92ec09	-0.071739264
107	0x3c19bf30	0.009383962
108	0x3cdcddda	0.026961256
109	0x3dcfb839	0.101425596
110	0xbdf621ea	-0.12018187
111	0xbe32f23c	-0.17475218
112	0x3be1e67d	0.0068939314
113	0x3cc017bc	0.023448817
114	0x3d195cc9	0.037442002
115	0xbe035b99	-0.1282791
116	0x3b82e7a9	0.003994901
117	0xbd2ae60f	-0.041723307
118	0x3caeb907	0.021328462
119	0xbd84d4eb	-0.064859234
120	0xbc501a91	-0.012701646
121	0xbdc6dc66	-0.097100064
122	0x3cf4d322	0.029885832
123	0xbbc0d8e1	-0.005885229
124	0x3b4ba8f6	0.003107605
125	0x3bc689cc	0.006058907
126	0x3bd827ce	0.006596542
127	0xbc81dfb2	-0.015853737
128	0xbc9aab11	-0.018880399
129	0xbcd2d579	-0.025736557
130	0xbcadd917	-0.02122168
131	0xbde26b82	-0.11055662
132	0xbd7a6811	-0.0611344
133	0x3cece228	0.028916433
134	0x3d7fbf11	0.062438074
135	0xbe1a873c	-0.1509065
136	0xbda8d17c	-0.08243081
137	0x3d23dde6	0.04000654
138	0x3e04c172	0.12964419
139	0xbb786eb9	-0.0037907793
140	0xbda63a9b	-0.08116647
141	0xbe01ed2e	-0.12688133
142	0x3d72772c	0.059195682
143	0x3c431daf	0.011908933
144	0xbd3abba4	-0.045589104
145	0x3a931ed6	0.00112244
146	0xbd4fe938	-0.050759524
147	0xbbf111e0	-0.007356867
148	0xbd09c5ae	-0.033635788
149	0xbd8c182d	-0.06840549
150	0xbbb988db	-0.0056620664
151	0x3db90de2	0.09035851
152	0xbd685c6c	-0.056728765
153	0xbc92aeed	-0.017905677
154	0x3cd64e02	0.026160244
155	0xbd840cf9	-0.06447787
156	0xbd774248	-0.060365945
157	0xbd3b9802	-0.045799263
158	0x3c9b3d98	0.018950269
159	0x3c0539cf	0.008131458
160	0xbda5adc2	-0.08089782
161	0x3d709f9f	0.058745977
162	0xbcef35c9	-0.029200451
163	0xbcf7bdd7	-0.03024189
164	0x3d175ac4	0.036951795
165	0xbc0cca5a	-0.008593166
166	0xbdb9be1c	-0.090694636
167	0xbd563a7a	-0.05230186
168	0xbc0b41ca	-0.008499572
169	0xbc4f03c7	-0.012635178
170	0x3dae1c92	0.08501543
171	0xbcc38e72	-0.023871634
172	0xbd0ee858	-0.03488955
173	0x3cd2051b	0.0256372
174	0x3cd81bc9	0.026380436
175	0x3dcd6fe5	0.10031108
176	0x3d124779	0.035712693
177	0x3bd41f5d	0.0064734654
178	0x3d23f685	0.04003002
179	0xbcdee01b	-0.027206471
180	0xbd12d59a	-0.035848238
181	0xbd04897e	-0.032357685
182	0xbdea93aa	-0.11453946
183	0xbda1dce6	-0.07903461
184	0x3d2a0269	0.041506205
185	0xbdc96393	-0.098334454
186	0xbdb8754d	-0.09006748
187	0xbd3d025a	-0.04614482
188	0x3d206d36	0.03916665
189	0xbda4caf5	-0.080465235
190	0xbe09371c	-0.13399929
191	0x3ce2cd59	0.027685808
192	0xbd6905fe	-0.05689048
193	0xbe1281f0	-0.1430738
194	0x3c68d741	0.014211477
195	0xbdf144f2	-0.117807284
196	0xbda799a7	-0.08183604
197	0xbda8fab7	-0.08250945
198	0x3d9b6516	0.0758764
199	0x3d82d035	0.063873686
200	0xbd883b00	-0.06651878
201	0xbd6633df	-0.056201812
202	0xbdda6076	-0.1066293
203	0x3d0911e9	0.033464346
204	0x3d0b34a2	0.03398574
205	0xbd938f4e	-0.072050676
206	0xbdd906bc	-0.105969876
207	0xbcd011ae	-0.025399055
208	0xbd1a1ec8	-0.03762701
209	0x3d625966	0.05526104
210	0x3c20116c	0.009769779
211	0xbc3ad240	-0.011402667
212	0x3e089b1a	0.13340417
213	0x3c496518	0.012292169
214	0xbda3995b	-0.079882346
215	0xbda635d5	-0.081157364
216	0xbd0a4241	-0.03375459
217	0x3c9996af	0.01874861
218	0x3d572814	0.052528456
219	0xbdbf382f	-0.09336888
220	0x3c2dc8be	0.010606943
221	0x3e1618c2	0.14657882
222	0x3cda4a3f	0.026646731
223	0xbc2ff81c	-0.010740306
224	0xbd4eeb1f	-0.050517198
225	0x3ccca552	0.024981175
226	0xbb88bd0e	-0.0041729277
227	0xbd051d80	-0.032498837
228	0x3d1d80b0	0.038452804
229	0x3d25ff3d	0.040526617
230	0xbd51b3c9	-0.051196847
231	0xbd854938	-0.06508106
232	0x3db9f225	0.090793885
233	0x3d37838b	0.044803184
234	0x3cd7be7f	0.026335953
235	0xbc8746f6	-0.016513329
236	0x3d7afc28	0.06127563
237	0xbd5e6037	-0.054290976
238	0x3d787ba3	0.060664784
239	0xbd5364f6	-0.051609956
240	0xbd9b2871	-0.07576073
241	0xbd096b23	-0.03354944
242	0x3d3d74df	0.046254035
243	0xbcf43227	-0.02980907
244	0xbd92d1fb	-0.07168957
245	0xbd2e2c93	-0.042522978
246	0xbd5d5e38	-0.054044932
247	0x3d9fa00a	0.07794197
248	0x3dd2aa1e	0.102863535
249	0xbdb385eb	-0.08765777
250	0x3c94ff25	0.018188069
251	0x3d68700e	0.05674749
252	0x3e00cef4	0.12578946
253	0x3cf4b811	0.029872926
254	0x3d89faa9	0.06737263
255	0xbc2c3343	-0.010510269

classifier.0.bias f4 [120]
0	0xbc2c53a7	-0.010517991
1	0x3d7b92bd	0.061419237
2	0x3b402929	0.0029321408
3	0x3c229ca0	0.009925038
4	0x3d00e17d	0.031465042
5	0xbcc8e618	-0.02452378
6	0x3bf8bd33	0.0075909137
7	0xbd21346b	-0.03935663
8	0xbd505d00	-0.05086994
9	0xbb10717f	-0.0022040305
10	0x3cf59052	0.029976044
11	0xbc9ec8c9	-0.019382851
12	0xbd97e9b8	-0.07417625
13	0xbdac2065	-0.08404616
14	0xbd17438f	-0.036929663
15	0xbd0fbdd3	-0.03509314
16	0x3d76416d	0.06012099
17	0xbcea65f3	-0.028613066
18	0xbd234b47	-0.039866712
19	0xbd9f9565	-0.077921666
20	0xbd24e5ad	-0.0402581
21	0x3d8ccff6	0.06875603
22	0x3caf6274	0.02140925
23	0x3c194f8c	0.009357344
24	0x3ca60a82	0.020268682
25	0xbc2821f5	-0.010262002
26	0xbd11907f	-0.035538193
27	0x3d5808be	0.052742712
28	0x3caaa065	0.020828435
29	0x3bf3dd91	0.0074421843
30	0xbcfe1852	-0.031017456
31	0x3d3b1402	0.045673378
32	0xbc0f2349	-0.00873644
33	0x3cf1702e	0.029472437
34	0xbd412644	-0.047155634
35	0xbcefc9cd	-0.02927103
36	0x3cc7167d	0.024302715
37	0xbd0475f7	-0.032339063
38	0x3cc307e2	0.02380747
39	0xbc761519	-0.0150196785
40	0xbd92f4dc	-0.071756095
41	0x3d09b575	0.033620317
42	0xbd3ba935	-0.045815665
43	0xbc44339e	-0.011975197
44	0xbd8319df	-0.06401419
45	0x3c43b178	0.011944167
46	0x3bc608d4	0.006043533
47	0xbbdaf0aa	-0.0066815214
48	0x3d5d9a57	0.054102268
49	0xbbf4b575	-0.0074679204
50	0x3d714637	0.058904853
51	0xbcb9ced7	-0.022681637
52	0x3c89bd26	0.016813826
53	0xbd14a904	-0.036294
54	0x3cc0b52b	0.023523888
55	0x3d22a03d	0.039703596
56	0x3d74f6a5	0.05980553
57	0xbcaf6bbb	-0.021413675
58	0xbd2e8a4e	-0.042612366
59	0x3b3b49e6	0.0028577982
60	0x3d0bbc15	0.034114916
61	0xbd1e1f0e	-0.038603835
62	0xbc1ad3a1	-0.00944987
63	0x3d29ebf0	0.041484773
64	0x3d696a72	0.05698628
65	0x3b6d3bfe	0.0036199088
66	0xbd0f437b	-0.034976464
67	0x3c9fa7c8	0.019489184
68	0x3cb25903	0.02177096
69	0x3c19bac0	0.009382904
70	0x3da20f4d	0.07913075
71	0x3baf1ab6	0.0053437604
72	0x3ce2c9e8	0.027684167
73	0x3d7d113d	0.061784018
74	0x3ca5159d	0.020151908
75	0xbd0431f8	-0.032274216
76	0x3c9235aa	0.017847855
77	0xbd6ad6a5	-0.057333607
78	0xbccfc5f2	-0.025362942
79	0xbd0c8a25	-0.034311432
80	0x3ca61a95	0.020276347
81	0xbcdd4284	-0.027009256
82	0x3cc7ac4e	0.024374153
83	0x3cc2b669	0.02376862
84	0x3c10be03	0.008834365
85	0xbcb9f06a	-0.022697646
86	0xbd25ee0c	-0.040510222
87	0x3cc604de	0.024172243
88	0xbc86b063	-0.01644153
89	0x3ad267a9	0.0016052622
90	0x3d87d982	0.06633283
91	0xbd638911	-0.05555064
92	0x3bbbd50e	0.005732185
93	0xbc6af02e	-0.01433949
94	0xbd21a300	-0.03946209
95	0x3d28a58c	0.041173503
96	0x3cab3159	0.020897554
97	0xba5f8b15	-0.00085275
98	0x3cf1c95d	0.029514963
99	0xbd934829	-0.07191498
100	0xbcb27705	-0.021785269
101	0xbc1f57e9	-0.009725549
102	0xbc66a216	-0.01407673
103	0xbda0101c	-0.078155726
104	0x3bbd3f88	0.005775396
105	0xbbf19be1	-0.0073733185
106	0x3cb22760	0.021747291
107	0x3d338f2c	0.04383771
108	0xbd384f2f	-0.04499739
109	0x3c55ad9d	0.013041881
110	0xbbf74c14	-0.007546911
111	0x3b448753	0.0029987886
112	0x3d22c5c3	0.03973938
113	0x3c36b132	0.011150645
114	0xbc4808ae	-0.012209101
115	0x3b966849	0.0045900685
116	0x3cdbc193	0.026825702
117	0xbcba316f	-0.02272865
118	0x3d8ba902	0.06819345
119	0xbad13af1	-0.0015963

classifier.2.weight f4 [84, 120]
0	0xbdf4c96c	-0.11952481
1	0xbe1dec5c	-0.15422195
2	0x3d957525	0.07297734
3	0xbce4e833	-0.027942752
4	0x3b735a32	0.0037132618
5	0x3dd6d8bc	0.104905576
6	0xbcc819ea	-0.02442642
7	0xbd408cbe	-0.047009222
8	0x3d20e9eb	0.03928558
9	0x3d823d78	0.063593805
10	0x3de04fca	0.109527186
11	0xbe44d310	-0.19221139
12	0x3da81b09	0.082082815
13	0xbd7740e9	-0.060364638
14	0xbdae976d	-0.08524976
15	0x3d271b79	0.040797684
16	0x3e27060d	0.16310902
17	0xbe04bbb6	-0.12962231
18	0xbe16f9e7	-0.14743768
19	0x3e22defe	0.15905377
20	0xbe1849a0	-0.14871836
21	0x3dc5e082	0.09661962
22	0xbd808cf9	-0.062768884
23	0xbcb321ab	-0.02186664
24	0x3d8d4c67	0.06899338
25	0xbcb43492	-0.021997724
26	0xbdf42303	-0.119207405
27	0x3e0b620f	0.13611625
28	0xbe439d77	-0.19103037
29	0x3e5a243a	0.21302882
30	0xbd9df080	-0.07711887
31	0x3deb9e14	0.115047604
32	0xbd06c873	-0.032906007
33	0xba8a1a01	-0.0010536314
34	0x3c9d64b3	0.019213056
35	0x3b5759d7	0.0032859945
36	0xbd0dd187	-0.03462365
37	0xbdfcbb1b	-0.12340375
38	0x3dbed6ad	0.0931829
39	0xbd83242d	-0.06403384
40	0xbd96e5b2	-0.0736803
41	0xbc1c6a5b	-0.0095468415
42	0x3cb4dfc6	0.02207936
43	0x3d8828bc	0.066483945
44	0xbd1a4dbb	-0.037671786
45	0xbb8314c0	-0.0040002763
46	0x3e11705e	0.14203021
47	0xbca6f4bd	-0.020380372
48	0xbccf6ec9	-0.025321381
49	0xbcac407a	-0.021026839
50	0x3e74e0a4	0.23913819
51	0xbdc0e1b9	-0.09418053
52	0xbe3c7dff	-0.18407439
53	0x3dbff298	0.09372443
54	0x3c095dfc	0.008384224
55	0x3dcdd52a	0.100504234
56	0xbe0c1bfd	-0.13682552
57	0xbe026ab6	-0.1273602
58	0x3d8ddf2f	0.069273345
59	0x3d585e87	0.052824523
60	0xbdb38b95	-0.087668575
61	0x3dba9b0a	0.091116026
62	0xbe23e7bb	-0.16006367
63	0x3e060ca8	0.13090765
64	0xbdc9d1b8	-0.09854454
65	0x3df08994	0.11744991
66	0xbd467796	-0.04845389
67	0x3e101e47	0.1407405
68	0x3e007414	0.1254428
69	0xbb026e5b	-0.0019902203
70	0x3ca91069	0.020637708
71	0x3d28deec	0.04122822
72	0xbc808e02	-0.015692715
73	0x3ccb242f	0.024797527
74	0xbdb64f3b	-0.08901831
75	0xbdbd1f3c	-0.09234473
76	0xbc8b1afb	-0.016980639
77	0xbdcff4fa	-0.101541474
78	0xbd7296a8	-0.05922571
79	0xbd73b95d	-0.059502948
80	0x3db27ca8	0.087151825
81	0xbe1868c6	-0.14883718
82	0x3e306e6c	0.17229623
83	0xbd2b61a1	-0.041841153
84	0x3db9a8c6	0.09065394
85	0x3d029e75	0.031889398
86	0xbcd7dde7	-0.026350928
87	0xbc7fa595	-0.015603443
88	0x3e066b03	0.13126759
89	0x3d3dabc6	0.046306394
90	0x3d7fa5da	0.062414028
91	0xbcb95a4a	-0.022626061
92	0x3db21ef4	0.0869731
93	0xbe187b70	-0.14890838
94	0xbe68414e	-0.22681162
95	0xbd61baed	-0.055109907
96	0xbdc72031	-0.09722937
97	0x3e05952f	0.1304519
98	0x3d81cff9	0.06338496
99	0x3c9d6885	0.019214878
100	0x3d99f6b4	0.07517758
101	0x3d6cf344	0.057849184
102	0xbda60981	-0.081072815
103	0x3d4bcd9f	0.049756642
104	0x3d23f32b	0.040026825
105	0xba3fe71f	-0.00073205115
106	0x3dfed5f4	0.12443152
107	0x3cccacfa	0.024984825
108	0x3d925f38	0.07147068
109	0x3d91e6a2	0.07124068
110	0x3d4b8b54	0.04969342
111	0x3d12d48d	0.035847235
112	0xbe598a71	-0.21244217
113	0xbd224cfc	-0.0396242
114	0xbd153dce	-0.036435895
115	0xbd7009ae	-0.05860298
116	0x3dafaf74	0.08578387
117	0x3d3f8323	0.04675592
118	0x3dccc9ba	0.09999414
119	0xbe0f507b	-0.13995545
120	0x3e1292d1	0.14313819
121	0x3c97f114	0.018547572
122	0xbcdfa2e4	-0.027299352
123	0xbd1eb961	-0.03875101
124	0x3e187a84	0.14890486
125	0x3dbcf0ab	0.09225591
126	0x3db12c8e	0.08651076
127	0xbe1a6105	-0.15076073
128	0x3d52844c	0.0513957
129	0xbdc9dbee	-0.098564014
130	0xbdbd6e06	-0.09249501
131	0x3e06c316	0.13160357
132	0xbd63bc5b	-0.05559955
133	0xbddd3f1a	-0.10803051
134	0x3dfc3f43	0.12316754
135	0xbd92043d	-0.07129715
136	0x3d02555a	0.03181968
137	0xbd2e5025	-0.0425569
138	0xbcc4d297	-0.024026198
139	0x3d302ff2	0.043014474
140	0xbe0a7358	-0.13520563
141	0x3c03d95a	0.008047426
142	0x3cbf5ef7	0.023360712
143	0x3c8819bf	0.01661384
144	0xbce96423	-0.028490132
145	0x3dfe5ab0	0.12419641
146	0xbcf732d5	-0.030175606
147	0xbcbf496b	-0.023350438
148	0x3d71e135	0.059052665
149	0x3dc7bb4e	0.097525224
150	0xbe16cedc	-0.14727348
151	0xbdc9ca03	-0.09852984
152	0xbdf6554a	-0.12027986
153	0x3e0501da	0.12988988
154	0x3e1acce5	0.15117224
155	0x3bf678f9	0.0075217453
156	0xbde83548	-0.113382876
157	0xbddaf67a	-0.10691543
158	0xbe0db9d8	-0.13840425
159	0x3d0a3162	0.0337385
160	0x3ded2852	0.11579956
161	0x3e08d039	0.1336068
162	0xbcda682f	-0.026661007
163	0xbd7c35ea	-0.061574854
164	0xbd8dd3dd	-0.06925175
165	0x3c116317	0.0088737225
166	0x3ca14da4	0.019690342
167	0x3bfbfc00	0.007689953
168	0x3e10b811	0.14132716
169	0xbdc0dc78	-0.09417051
170	0x3bf5c01c	0.007499708
171	0x3c86d546	0.016459119
172	0xbd939551	-0.07206214
173	0xba909afe	-0.0011032519
174	0xbddb0e4b	-0.106960855
175	0xbe1af0c5	-0.15130909
176	0xbdc6705f	-0.09689402
177	0x3e0d8873	0.13821582
178	0xbd9f182e	-0.07768284
179	0x3d66434e	0.05621653
180	0xbd2ff4b5	-0.04295798
181	0x3d5cc46e	0.053898267
182	0xbd584080	-0.052795887
183	0xbe0a53e3	-0.13508563
184	0x3e003c33	0.12522964
185	0x3e201b5e	0.1563544
186	0xbda4c1c4	-0.0804477
187	0xbb3b7ee9	-0.002860958
188	0x3d6f8152	0.05847294
189	0xbe69b53d	-0.22823043
190	0x3d45d42c	0.048298046
191	0x3d9e240d	0.0772172
192	0x3e1099e4	0.14121205
193	0xbe07b780	-0.13253593
194	0x3ca22f22	0.019797865
195	0xbd3e22ee	-0.04642003
196	0x3db4af6a	0.0882252
197	0xbd1c6f61	-0.038192157
198	0xbdaf4e51	-0.085598595
199	0xbe3f2e29	-0.18669952
200	0x3cdc905e	0.026924308
201	0xbc568b7f	-0.013094782
202	0xbe1476b4	-0.14498407
203	0xbd24e586	-0.040257953
204	0x3e0b3b94	0.13596946
205	0x3c9e86ee	0.019351449
206	0x3d84181c	0.06449911
207	0x3d6b9adf	0.057520743
208	0x3d0716b9	0.032980654
209	0xbda2ce42	-0.07949497
210	0xbd1415e8	-0.036153704
211	0xbd6d8f8d	-0.05799823
212	0xbdb6088c	-0.08888349
213	0x3d470d0e	0.048596434
214	0xbdb8bf07	-0.090208106
215	0x3d8f6d77	0.07003301
216	0xbdb8155e	-0.089884505
217	0xbdd0d4d9	-0.101968475
218	0xbd894980	-0.06703472
219	0xbcd9d57c	-0.026591055
220	0x3e12e7d2	0.14346245
221	0x3e1e94d0	0.15486455
222	0xbdafa3e8	-0.085761845
223	0x3dba6636	0.091015264
224	0xbc5bf95c	-0.013426151
225	0xbe0a6d8e	-0.13518354
226	0xbe02f671	-0.12789322
227	0x3d9754de	0.07389234
228	0x3dc22ce8	0.094812214
229	0x3d95bee4	0.073118
230	0xbc08362d	-0.008313698
231	0x3899ba4a	7.3303076e-05
232	0xbe507a39	-0.20359124
233	0xbe1e806b	-0.15478675
234	0xbdc313e6	-0.0952528
235	0x3d07de2e	0.03317087
236	0x3e2fcbf9	0.17167653
237	0x3c434125	0.011917387
238	0x3ca7f8a0	0.020504296
239	0xbd14f4cd	-0.036366273
240	0x3cd45779	0.025920616
241	0xbbea044b	-0.007141625
242	0xbdd2d265	-0.10294036
243	0xbc14d9b0	-0.009085104
244	0xbdf1e2d9	-0.11810846
245	0x3b8cc475	0.0042958804
246	0xbdcddf37	-0.100523405
247	0xbc97c693	-0.018527305
248	0xbbf44d47	-0.0074555012
249	0x3d07002c	0.03295915
250	0x3d9703f2	0.073737994
251	0x3da8e5f6	0.082469866
252	0xbcf3c9da	-0.029759336
253	0xbc4d0a13	-0.012514609
254	0x3dd69a9c	0.10478708
255	0x3dc9b3d8	0.098487556

classifier.2.bias f4 [84]
0	0xbc80ed80	-0.015738249
1	0xbdb715e6	-0.08939724
2	0x3cb7c751	0.022433909
3	0x3ce6d25f	0.028176485
4	0x3cac8c28	0.021062925
5	0x3ca7d207	0.020485891
6	0x3dcc3f9c	0.0997307
7	0x3dad7be0	0.08470893
8	0xbcbcfca6	-0.02306969
9	0x3dc628c7	0.096757464
10	0xbdd87e67	-0.10570984
11	0x3dae3bcd	0.085075
12	0x3d880240	0.06641054
13	0xbd9287a1	-0.071547754
14	0x3cbec79a	0.023288537
15	0xbda02b4f	-0.078207605
16	0xbd215c9a	-0.039394952
17	0xbc9056c4	-0.017619498
18	0xbcf5d2c6	-0.030007731
19	0xbcea9122	-0.028633658
20	0xba789a42	-0.00094834354
21	0x3d252dd0	0.040326893
22	0x3ba086e0	0.004898891
23	0xbceb5d7e	-0.028731104
24	0x3d893630	0.066997886
25	0xbcf77b9d	-0.03021031
26	0x3d295dbf	0.04134917
27	0xbbad913a	-0.0052968534
28	0x3cbc03e7	0.02295108
29	0x3d87cb29	0.066305466
30	0x3d45d230	0.048296154
31	0x3cc0f3dc	0.023553781
32	0xbd8225a0	-0.06354833
33	0xbd7d7e2b	-0.0618879
34	0x3c8f6fb9	0.017509328
35	0xbd11c69f	-0.03558981
36	0xbda97cb6	-0.0827574
37	0xbdbdaa75	-0.09261028
38	0x3bb89721	0.0056332503
39	0xbd881de5	-0.06646327
40	0x3d6ad424	0.05733122
41	0xbdc533f2	-0.096290484
42	0x3d0c110b	0.03419594
43	0xbc448268	-0.011993982
44	0xbd0d4801	-0.034492496
45	0x3bc32db3	0.0059563755
46	0x3ba7a1d0	0.005115725
47	0xbd555c3e	-0.052089922
48	0xbd47dc1b	-0.048793893
49	0x3d442bc7	0.04789331
50	0x3d243cf5	0.040097196
51	0x3d2a3d50	0.04156238
52	0x3d8abd5e	0.067744
53	0xbd37c8c2	-0.044869192
54	0xbdaea02b	-0.08526643
55	0x3c2b27ab	0.010446469
56	0xbc94cf37	-0.018165214
57	0xbceaa923	-0.028645104
58	0x3c17c461	0.009263129
59	0xbda51d39	-0.080622144
60	0xbce46480	-0.027879953
61	0x3dc78f40	0.0974412
62	0x3d71b48f	0.059010085
63	0x3bac5330	0.00525894
64	0x3d1cf2da	0.03831754
65	0xbd902b9e	-0.07039569
66	0x3d97d2ff	0.07413291
67	0x3d1885e8	0.037237078
68	0x3d8a6c0a	0.06758888
69	0x3c3a5f86	0.011375314
70	0xbdfeb372	-0.1243657
71	0x3dd799a1	0.10527349
72	0x3dd5791e	0.10423492
73	0x3d8bf199	0.068331905
74	0x3cf9f1bd	0.030510778
75	0xbbfdcf18	-0.0077456348
76	0x3cb7060b	0.022341749
77	0xbd242aac	-0.040079758
78	0x3d25eb08	0.040507346
79	0x3d5a8d9e	0.053357713
80	0xbd459b88	-0.04824403
81	0xbd614f8d	-0.055007506
82	0xbc90ac26	-0.017660212
83	0xbcdbc897	-0.026829047

classifier.4.weight f4 [10, 84]
0	0xbe82d425	-0.25552478
1	0xbe3eb173	-0.18622379
2	0x3e4bcb62	0.19901803
3	0x3dcb8cb5	0.09938947
4	0x3e4b5e44	0.19860178
5	0xbda82cde	-0.08211683
6	0x3e29a556	0.16566977
7	0x3dc0e4c2	0.09418632
8	0xbe81824b	-0.25294718
9	0x3e884c54	0.26620734
10	0xbe06b64a	-0.13155475
11	0xbb9af79e	-0.0047292253
12	0x3dfb4840	0.1226964
13	0xbcda87cf	-0.026676087
14	0xbcf284f7	-0.029604418
15	0x3e4529f2	0.19254282
16	0xbebc77ca	-0.36810142
17	0xbd38d548	-0.045125276
18	0xbe7e130b	-0.24811952
19	0x3e17713f	0.14789294
20	0xbe54f96e	-0.20798275
21	0xbe38f60d	-0.18062611
22	0xbe5953e6	-0.21223411
23	0x3e5b9d1e	0.21446654
24	0x3d5e793c	0.054314837
25	0xbe7c5fa4	-0.24645859
26	0xbe0d5347	-0.13801299
27	0xbe30c3aa	-0.1726214
28	0x3e8363be	0.25662035
29	0xbe95d51f	-0.2926416
30	0x3e0e75b4	0.13912088
31	0x3e227836	0.1586617
32	0xbe6f2716	-0.23354754
33	0x3d111975	0.03542467
34	0x3ce53520	0.027979434
35	0x3e36bdf1	0.17845894
36	0xbe4b1653	-0.19832735
37	0xbe446e39	-0.19182672
38	0x3c729963	0.014807078
39	0xbe3c28bc	-0.18374914
40	0xbe58eac7	-0.2118331
41	0x3e9f297c	0.31086338
42	0xbe11889d	-0.1421227
43	0xbe8f9692	-0.28044564
44	0xbcc3730e	-0.023858573
45	0xbe87f099	-0.2655075
46	0x3e19b98f	0.15012191
47	0x3e95e4e0	0.2927618
48	0x3e9e7170	0.3094592
49	0x3e073283	0.13202862
50	0xbe8b2a05	-0.27180496
51	0x3e4f1eaf	0.20226549
52	0xbe647eaf	-0.22313951
53	0xbdfea61b	-0.12434026
54	0xbdb7b3d2	-0.08969845
55	0xbe1cd36c	-0.15315026
56	0x3e419047	0.18902694
57	0x3e57322a	0.2101523
58	0x3e377a84	0.1791783
59	0x3d8b9d77	0.068171434
60	0x3e89f040	0.2694111
61	0x3e30efd7	0.17278992
62	0x3d834b6c	0.0641087
63	0x3e017d20	0.12645388
64	0xbe18ba84	-0.149149
65	0xbe04043d	-0.12892242
66	0x3e43bf29	0.1911589
67	0xbda41ab8	-0.08012909
68	0x3e9f3ede	0.3110265
69	0xbdf466ce	-0.11933671
70	0xbe39b582	-0.18135646
71	0x3dde8d41	0.10866786
72	0x3e72870c	0.23684329
73	0xbe4da0e2	-0.20080903
74	0xbe836604	-0.2566377
75	0xbd53195c	-0.051537856
76	0x3e36e17c	0.17859453
77	0x3da51b35	0.0806183
78	0xbeb2fbbe	-0.3495769
79	0xbe4ac4d9	-0.19801654
80	0xbdbd4d6e	-0.09243284
81	0x3e4929b3	0.19644813
82	0xbe8a4e7c	-0.27013004
83	0x3e24b3d0	0.16084218
84	0xbe37e060	-0.17956686
85	0x3e2c420a	0.16822067
86	0xbe025407	-0.12727366
87	0xbe6fff01	-0.2343712
88	0x3cbf0881	0.023319485
89	0x3d81bc24	0.06334713
90	0x3e5ca07b	0.21545593
91	0x3e2b69a0	0.16739511
92	0x3e31b369	0.17353596
93	0x3e8abcfe	0.27097315
94	0xbe959117	-0.29212257
95	0x3e4c4fe4	0.19952351
96	0x3e94e7e0	0.29083157
97	0xbe84eecf	-0.25963446
98	0x3e8c0a29	0.27351502
99	0xbe81ffab	-0.25390372
100	0xbe54622d	-0.20740576
101	0x3e273d88	0.16332066
102	0x3e6daab2	0.23209646
103	0xbdb8447c	-0.08997437
104	0xbe2f5a82	-0.1712437
105	0x3dfae86e	0.12251364
106	0x3e1825e7	0.14858209
107	0xbd75b3cf	-0.059985932
108	0x3e50f4c0	0.20405865
109	0xbdc62ac3	-0.09676125
110	0x3e684d3c	0.22685713
111	0xbcfa6b65	-0.030568788
112	0x3e41853c	0.18898481
113	0x3de770f4	0.11300841
114	0xbe6045e1	-0.21901657
115	0x3e9241e9	0.2856591
116	0x3e727007	0.23675548
117	0xbe89e2b8	-0.26930785
118	0xbc9e9175	-0.019356469
119	0x3e4d0f80	0.20025444
120	0x3e8482cf	0.2588105
121	0x3e6c2bb6	0.2306355
122	0x3de6eb44	0.11275342
123	0xbe060a2d	-0.13089819
124	0x3e85ea26	0.26155204
125	0xbe1faaad	-0.15592451
126	0x3e06a612	0.13149288
127	0xbe4cd79e	-0.20004126
128	0xbdea204f	-0.114319436
129	0x3e139e8c	0.1441595
130	0xbe3c72a4	-0.18403107
131	0x3e6cd08e	0.23126432
132	0x3e553f6a	0.20824972
133	0x3e6d11ab	0.23151271
134	0x3e38805a	0.18017712
135	0xbe7ec539	-0.24879922
136	0x3e545cca	0.20738521
137	0x3d70bf10	0.05877596
138	0xbe557aff	-0.208477
139	0x3dea39f4	0.11436835
140	0xbdad54ad	-0.08463416
141	0xbe7b055a	-0.2451376
142	0xbe399bce	-0.18125841
143	0x3e91d678	0.2848394
144	0xbe19e07a	-0.15027037
145	0x3e67d8f9	0.22641362
146	0xbe732c32	-0.23747328
147	0xbe40ff5d	-0.18847413
148	0x3e337479	0.175249
149	0x3e7991f8	0.24372089
150	0x3e900f96	0.2813689
151	0x3e4ad14a	0.198064
152	0x3e9e5c92	0.3093
153	0x3dfd57f1	0.12370289
154	0x3d7fe07f	0.062469956
155	0xbe4f99a5	-0.20273454
156	0xbdb72d8e	-0.08944236
157	0x3e15ba93	0.14621954
158	0xbe38fa74	-0.1806429
159	0x3e432435	0.1905678
160	0xbe364eb0	-0.17803454
161	0xbe6acc3b	-0.2292947
162	0x3d0fc2f8	0.035098046
163	0x3e937b26	0.28804892
164	0x3dda0003	0.106445335
165	0x3dbc0a14	0.0918161
166	0xbeaa0af8	-0.33211493
167	0xbe7bb41f	-0.2458043
168	0xbd8d3a17	-0.068958454
169	0xbe7fbf1f	-0.2497525
170	0x3e839b34	0.25704348
171	0xbe82191d	-0.25409785
172	0x3e9627ba	0.29327184
173	0x3e66f01e	0.22552535
174	0x3e8126a9	0.25224808
175	0x3e87a1f2	0.26490742
176	0x3d2ea0a5	0.04263367
177	0x3e18d68b	0.14925592
178	0x3e5aff4d	0.21386452
179	0x3d41dea7	0.04733148
180	0xbdc36821	-0.095413454
181	0x3e7178a8	0.23581183
182	0xbe215f80	-0.15759087
183	0x3d484c3f	0.04890084
184	0x3e923e99	0.28563383
185	0x3e06b945	0.13156612
186	0xbe2d95fb	-0.16951744
187	0xbe066b10	-0.13126779
188	0xbe0a9772	-0.13534334
189	0x3e11b350	0.14228559
190	0x3e743871	0.23849656
191	0x3e4c8627	0.1997305
192	0x3da9eb24	0.08296803
193	0x3d66565e	0.05623471
194	0x3e7652c0	0.24055004
195	0x3e80d7f3	0.25164756
196	0x3e384798	0.17996061
197	0x3e80b495	0.25137773
198	0xbe0d8f00	-0.13824081
199	0x3cd7644d	0.026292944
200	0xbe925067	-0.28576967
201	0xbe0f6e57	-0.14006935
202	0xbe4af32c	-0.19819325
203	0xbe2ea134	-0.17053682
204	0xbe7be507	-0.24599086
205	0xbdbfaa71	-0.09358681
206	0xbe88518b	-0.26624712
207	0x3e7461da	0.23865452
208	0xbe655bff	-0.22398375
209	0x3d989ec1	0.07452155
210	0x3e42cd21	0.19023563
211	0x3e7faae9	0.24967541
212	0xbe2939eb	-0.16526
213	0xbcc6b35d	-0.024255449
214	0xbdee7e6b	-0.11645206
215	0x3e2152ad	0.15754195
216	0x3e801811	0.2501836
217	0xbe05c35b	-0.13062803
218	0x3dcbc55b	0.09949752
219	0x3eb03bdc	0.3442067
220	0x3d1f6c2f	0.03892153
221	0x3e595b80	0.2122631
222	0xbe832d55	-0.25620523
223	0x3c9a3a8f	0.018826751
224	0x3d6682d5	0.056277115
225	0x3e556a85	0.20841415
226	0xbde4a2da	-0.11163874
227	0xbe129df6	-0.1431807
228	0x3e2214cd	0.15828247
229	0x3db3bee6	0.08776645
230	0xbe3a0c3a	-0.18168727
231	0xbe5a1a9f	-0.21299218
232	0xbe248c81	-0.16069223
233	0xbddcdc05	-0.10784153
234	0xbe79e324	-0.24403054
235	0xbe525fab	-0.20544307
236	0x3e9de004	0.30834973
237	0xbe6d6c25	-0.23185785
238	0x3e30ec4b	0.17277639
239	0x3e6547bd	0.22390647
240	0x3e3e6853	0.18594484
241	0xbd192678	-0.037390202
242	0x3e6632c3	0.22480302
243	0x3e4a138e	0.19734022
244	0xbdfa7d9a	-0.12230988
245	0xbe6f143f	-0.23347567
246	0x3e51147f	0.20417975
247	0xbdadb14f	-0.084810846
248	0xbe75a3b3	-0.23988228
249	0xbda6caff	-0.08144187
250	0x3e85d4b7	0.2613885
251	0xbe3c3f04	-0.18383414
252	0x3e83afef	0.25720164
253	0x3da2507e	0.07925509
254	0xbe003572	-0.12520388
255	0xbe8470a0	-0.25867176

classifier.4.bias f4 [10]
0	0xbaecad01	-0.001805693
1	0xbcd0f801	-0.025508882
2	0x3cba9c4b	0.022779604
3	0xbd315164	-0.04329051
4	0xbc9dddbc	-0.01927077
5	0xbb93e3a3	-0.0045132204
6	0x3d2294e9	0.039692793
7	0x3c2961c3	0.01033825
8	0xbd8d236b	-0.06891521
9	0x3db7e644	0.089794666
